scripts/cuboid_transformer/sst/experiments/sst_colab_run_1/checkpoints/student_shift_east/best_student_model.pth (torch, 67737 bytes, 5 tensors)

cell_list.0.conv.weight f4 [48, 13, 3, 3]
-0.2522973 -0.2525665 -0.20848426 -0.15462704 -0.35686767 -0.2659901 0.069814846 -0.2679808
-0.24540892 0.027402647 0.010368961 -0.030514631 -0.0031178133 0.0069180517 0.030468937 0.009535913
-0.059049863 0.033294123 0.031540014 -0.009720822 0.017166609 -0.0663381 0.07629721 -0.04392761
0.08070142 0.06816555 -0.044132818 -0.043248635 -0.06562157 -0.042775936 -0.0057072514 0.08137657
0.061092585 -0.034410443 -0.030691043 0.03309286 -0.0210459 -0.08151009 -0.025544105 0.03203732
-0.050608546 -0.004808166 -0.014785885 0.08096517 -0.060593583 -0.06482589 0.041685306 0.07628227
0.025088841 0.008387304 -0.019067826 0.020484012 -0.08855912 -0.041121114 0.048408717 -0.050365712
-0.042601608 -0.07511158 -0.05531531 0.038184088 0.049665224 0.048665673 0.07417171 0.017627051
0.019065699 -0.08183526 -0.051100276 -0.03133723 -0.041893624 0.091363 0.059368003 0.061227966
0.008545729 -0.009880415 -0.005234543 -0.012864898 -0.037839297 0.04055434 -0.09229836 -0.07114199
-0.0034040152 0.021546833 0.08051366 0.06603982 -0.068651855 0.011258579 -0.028565055 0.039227404
0.07504698 0.059773054 -0.052655734 0.05484755 -0.0010588112 0.05866066 -0.03125623 -0.03824284
0.04872416 -0.041863095 -0.029657215 -0.04413285 0.007439737 -0.06923849 0.061119467 -0.041909263
0.08532221 0.077041015 -0.05408282 0.020910146 0.057500236 0.067969985 -0.013494863 -0.036646266
-0.0916756 0.07901859 -0.03199639 -0.025374383 -0.08493002 -0.17890112 -0.24827352 -0.1803883
-0.12784608 -0.31386474 -0.09290403 0.031424467 -0.17551346 -0.11164561 0.074918576 0.012960141
0.030165842 -0.06591662 0.05574594 0.062608786 0.08839251 -0.008146993 -0.020080945 -0.006408765
-0.06610723 0.07391391 -0.07681796 0.026993584 0.058729142 -0.061783288 -0.06008005 -0.07702588
-0.03210736 0.013271349 -0.08491937 -0.072207324 -0.063296296 0.05475912 0.0631641 -0.018299855
-0.0027890156 0.08108163 0.0024307813 -0.088052526 0.053477883 0.07572136 0.072650105 0.028631313
0.014186117 0.04714806 0.022175908 0.07118495 -0.020840857 -0.017537694 0.011474523 -0.03127818
0.06417383 -0.014385561 0.023567043 -0.07813053 0.026947925 -0.023089297 0.075735666 -0.036102273
-0.036894456 0.07665862 0.08448498 -0.08024858 0.03227855 -0.06251392 -0.061834592 -0.015361011
0.027050793 -0.07986114 0.07823828 0.066759415 -0.058862288 -0.025910825 -0.05897244 0.010777131
-0.0632434 0.02785727 0.04027364 0.047028407 -0.07510798 -0.012455493 -0.02395565 -0.052475102
-0.02713679 0.0628191 -0.03341575 -0.019846098 0.07765667 0.051467538 0.031554926 -0.041463908
0.06383431 -0.038166784 0.05722599 0.027450036 0.0005576797 -0.046136793 -0.011892116 -0.04694877
-0.046032228 0.026091743 -0.0429174 0.044550754 0.04327312 -0.070583194 -0.033967238 -0.03847939
0.08553501 -0.013747132 -0.073722266 0.07127569 -0.074381515 0.038635373 0.022689007 -0.0052924245
0.051292613 0.040627632 0.075734854 0.086312436 0.13630076 0.12006094 0.12120122 0.26064312
0.07651412 0.057410575 0.22568196 -0.05857485 0.060540516 0.06354018 -0.05352663 -0.061591085
0.07738429 -0.0041942247 -0.0708771 0.024568997 0.0025778 -0.052063946 0.008344057 -0.04389091
00000000: 1d2d 81be 6550 81be e67c 55be 8d56 1ebe
00000010: 5cb7 b6be db2f 88be 16fb 8e3d c834 89be
00000020: 7a4c 7bbe 847b e03c 93e2 293c d2f9 f9bc
00000030: 3a54 4cbb d3b0 e23b fe99 f93c 853c 1c3c
00000040: 45de 71bd 6b5f 083d 1a30 013d 1544 1fbc
00000050: fda0 8c3c 45dc 87bd b641 9c3d 70ed 33bd
00000060: c946 a53d 619a 8b3d 9dc4 34bd 7b25 31bd
00000070: 9a64 86bd d235 2fbd e503 bbbb c2a8 a63d
00000080: 383c 7a3d f7f1 0cbd c86b fbbc 618c 073d
00000090: 7468 acbc c3ee a6bd df41 d1bc 9139 033d
000000a0: e84a 4fbd d28d 9dbb 7f40 72bc 11d1 a53d
000000b0: fa30 78bd 70c3 84bd 36be 2a3d e139 9c3d
000000c0: 1d87 cd3c e76a 093c 2134 9cbc 16ce a73c
000000d0: 7c5e b5bd 9d6e 28bd 3848 463d 474c 4ebd
000000e0: 067f 2ebd 1ad4 99bd 4e92 62bd eb66 1c3d
000000f0: c36d 4b3d a855 473d 56e7 973d 9b66 903c
00000100: ab2f 9c3c 3f99 a7bd 864e 51bd 785b 00bd
00000110: a698 2bbd 861c bb3d dd2b 733d 2dca 7a3d
00000120: 6303 0c3c 77e1 21bc 8786 abbb 4bc7 52bc
00000130: 61fd 1abd 4f1c 263d ec06 bdbd e4b2 91bd
00000140: e615 5fbb fc82 b03c 59e4 a43d e33f 873d
00000150: 5899 8cbd e775 383c 4301 eabc eaac 203d
00000160: 3bb2 993d 97d4 743d 8aad 57bd d3a7 603d
00000170: cfc7 8aba 2946 703d 8806 00bd 86a4 1cbd
00000180: fc92 473d a378 2bbd b0f3 f2bc a6c4 34bd
00000190: 0ac9 f33b e9cc 8dbd 6858 7a3d 0ca9 2bbd
000001a0: 69bd ae3d aec7 9d3d f285 5dbd c14b ab3c
000001b0: 5e85 6b3d d933 8b3d 8f19 5dbc 651a 16bd
000001c0: 6bc0 bbbd 80d4 a13d a60e 03bd f0dd cfbc
000001d0: caef adbd db31 37be 6a3b 7ebe b6b7 38be
000001e0: 15ea 02be e1b2 a0be 7844 bebd f1b6 003d
000001f0: cdb9 33be 74a6 e4bd e96e 993d c556 543c
00000200: 5b1e f73c 4bff 86bd db55 643d 0939 803d
00000210: 2207 b53d f77a 05bc cb80 a4bc 9e00 d2bb
00000220: 3a63 87bd 2d60 973d bc52 9dbd a621 dd3c
00000230: f88d 703d 7910 7dbd 8016 76bd bfbf 9dbd
00000240: 0283 03bd 1270 593c 35ea adbd 6fe1 93bd
00000250: 7da1 81bd 194b 603d 2e5c 813d 94e9 95bc
00000260: ebc7 36bb 200e a63d be4d 1f3b e254 b4bd
00000270: a00b 5b3d cd13 9b3d 94c9 943d 378c ea3c
00000280: e36c 683c 531e 413d 40aa b53c 6ac9 913d
00000290: 72ba aabc 36ab 8fbc a3ff 3b3c 8d1d 00bd
000002a0: 926d 833d 6bb1 6bbc ac0f c13c e602 a0bd
000002b0: e5c1 dc3c c425 bdbc 4d1b 9b3d fadf 13bd
000002c0: a41e 17bd 32ff 9c3d 7606 ad3d 5e59 a4bd
000002d0: 8336 043d 4c07 80bd 4546 7dbd c0ac 7bbc
000002e0: a099 dd3c 3d8e a3bd 643b a03d 29b9 883d
000002f0: 9519 71bd f042 d4bc 168d 71bd 9092 303c
00000300: c185 81bd ee34 e43c f9f5 243d dca0 403d
00000310: 36d2 99bd 2012 4cbc a43e c4bc 22f0 56bd
00000320: f94d debc 4da7 803d f4de 08bd 4994 a2bc
00000330: 760a 9f3d a0cf 523d bd3f 013d 0fd6 29bd
00000340: 90bb 823d c654 1cbd cd65 6a3d e6de e03c
00000350: 4031 123a eff9 3cbd 26d7 42bc 5a4d 40bd
00000360: 4a8c 3cbd 5abe d53c 28ca 2fbd da7a 363d
00000370: 283f 313d ec8d 90bd 3b21 0bbd 919c 1dbd
00000380: fb2c af3d a73b 61bc b3fb 96bd fdf8 913d
00000390: 5655 98bd 2040 1e3d 4cde b93c 136c adbb
000003a0: 3418 523d 2969 263d e01a 9b3d 93c4 b03d
000003b0: 6d92 0b3e 83e2 f53d 5838 f83d 0473 853e
000003c0: 6fb3 9c3d 5a27 6b3d 2c19 673e 2fec 6fbd
000003d0: 55f9 773d 5b21 823d bd3e 5bbd ef46 7cbd
000003e0: a87b 9e3d b56f 89bb 0328 91bd ec44 c93c
000003f0: 4ff0 283b 0141 55bd 83b5 083c f4c6 33bd

cell_list.0.conv.bias f4 [48]
0.34558642 0.28977108 0.041705593 0.33355063 0.38475615 0.20898621 0.0034157461 0.070502415
0.2626201 0.32796255 0.2036203 0.1674621 -0.06077709 0.047699302 0.0023388448 0.029440885
0.0039351233 -0.07453165 -0.078373045 -0.042484466 0.07976241 0.07614215 0.030137649 0.060464386
0.33047143 0.18801403 0.06547539 0.11606773 0.31807905 0.1872721 0.12332641 0.09219743
0.14759022 0.23873402 0.19569395 0.10329992 -0.008347867 -0.039448142 0.03899313 0.14931767
-0.1664597 0.011880439 0.11923758 -0.07402857 0.1751634 -0.08652109 0.0589148 0.08595996
00000000: b4f0 b03e e05c 943e 7cd3 2a3d 26c7 aa3e
00000010: c2fe c43e 7b00 563e b6da 5f3b 9263 903d
00000020: 2476 863e b5ea a73e d781 503e 2f7b 2b3e
00000030: 66f1 78bd 5860 433d 4e47 193b 032e f13c
00000040: 35f2 803b 0da4 98bd 0c82 a0bd 3104 2ebd
00000050: 795a a33d 6af0 9b3d 3be3 f63c 81a9 773d
00000060: 8d33 a93e c086 403e f617 863d ebb4 ed3d
00000070: 42db a23e 42c4 3f3e 8f92 fc3d 02d2 bc3d
00000080: e421 173e b176 743e ff63 483e e98e d33d
00000090: 7ec5 08bc 6094 21bd 43b7 1f3d bbe6 183e
000000a0: 6974 2abe 2ca6 423c d532 f43d 4a9c 97bd
000000b0: 095e 333e f831 b1bd a550 713d c70b b03d

cell_list.1.conv.weight f4 [48, 24, 3, 3]
-0.1042677 -0.22304724 -0.34829226 -0.03587938 -0.23438959 -0.22985764 0.255566 -0.044298634
-0.16766472 0.1146725 -0.24066052 -0.27766967 -0.044813722 -0.23682055 -0.28031772 0.19017898
0.0041800733 -0.1803654 0.1377092 0.11588587 -0.06813419 -0.0151276905 -0.10201931 -0.1986266
-0.033373646 -0.08063225 -0.2650818 0.47273308 -0.1335414 -0.30892044 0.18553472 -0.2352708
-0.29447037 0.19204606 -0.19850387 -0.31504637 0.20900667 -0.090204075 -0.17760623 0.24128631
-0.16128708 -0.07387734 0.37961906 0.058585778 0.13134438 0.2274893 0.025527043 -0.13694963
0.14355952 0.0035415182 -0.20853017 0.112024024 -0.09700857 -0.31808037 0.11018123 0.060859706
-0.041907642 -0.0689476 -0.08125957 -0.15327854 -0.07414328 -0.10263378 -0.21747985 -0.09595133
0.03584441 0.12097781 0.022025278 0.16379002 0.17760697 0.009743006 0.115572415 0.29593995
-0.08621444 0.216436 0.29725814 -0.12323297 0.15561177 0.15044098 -0.25908548 -0.13092539
0.002968312 -0.0024603454 -0.2609754 -0.28104776 0.14256363 -0.14511248 -0.24255955 0.33222243
-0.019425428 -0.060757346 0.11153051 0.24804953 0.10277546 -0.04896313 0.12630625 -0.004406564
-0.16887224 0.00042133394 -0.120028995 -0.033612426 0.22642195 0.28382635 -0.044965666 0.19065474
0.13039264 -0.311548 -0.05610832 0.0047455514 0.06313958 -0.05622379 -0.057805095 -0.049635876
-0.021338277 0.026297005 -0.03572285 0.0012850681 -0.05349574 -0.01505489 -0.0075972173 0.0035317554
0.049120624 0.055570778 -0.046367306 -0.03775457 -0.010687636 -0.036135662 0.05689056 -0.019365009
-0.030209921 0.014358595 0.028487321 -0.049396865 0.027537867 0.045540243 0.047559995 0.02525696
-0.028974405 -0.06721801 -0.039411616 0.007155216 -0.015141169 0.017542366 0.06643023 -0.046881665
0.022222174 0.047530744 -0.027306287 -0.05156056 -0.007968457 -0.037942585 -0.01079416 0.054213073
0.0030661016 -0.05033467 0.05453211 0.046182103 0.026651472 -0.064687066 0.029025901 0.013543318
-0.04867931 -0.0043549575 0.010002989 -0.024123019 -0.011407413 -0.012795079 -0.0028861878 0.04263686
0.0053867465 -0.024923582 -0.021232832 0.035540707 -0.06576835 0.033923674 0.032816745 -0.032236487
-0.055036534 0.040250756 -0.063427135 0.03733037 0.053205024 -0.017042166 0.014061832 -0.025744425
-0.063091606 -0.06516029 0.061840724 -0.019003421 0.035286035 -0.0023755576 0.032170843 -0.043314885
0.026461078 0.042272042 0.04332601 0.049341004 -0.044171207 0.042921893 0.05438709 0.054331
-0.055619888 0.055008106 -0.041508913 0.061862282 -0.04190143 -0.0023037088 -0.014151355 0.04859682
-0.013406109 0.032841012 0.046757486 0.02331131 -0.017019236 -0.031748462 -0.024388935 0.017412523
-0.26750734 -0.6497714 -0.60768384 -0.026334988 -0.4731913 -0.428356 0.25236952 -0.18496291
-0.07847778 -0.2765432 -0.5429521 -0.54038715 -0.12974535 -0.3999944 -0.34730637 0.108985275
-0.16076283 -0.126528 0.1894878 -0.0664862 -0.19387355 -0.0654313 -0.25430706 -0.36584374
-0.14616014 -0.31478283 -0.37569273 0.5515233 -0.05946456 -0.45198065 0.25699142 -0.27331838
-0.520403 0.2619007 -0.314324 -0.48733845 0.21576364 -0.40554616 -0.34356967 0.42993325
00000000: 4e8a d5bd 7f66 64be 5d53 b2be 42f6 12bd
00000010: d303 70be cd5f 6bbe 8cd9 823e 7c72 35bd
00000020: 4db0 2bbe 6ad9 ea3d b66f 76be b82a 8ebe
00000030: 988e 37bd 1681 72be ce85 8fbe 47be 423e
00000040: fff8 883b b5b1 38be a403 0d3e 9255 ed3d
00000050: f089 8bbd 22da 77bc 80ef d0bd c564 4bbe
00000060: ceb2 08bd 8522 a5bd cdb8 87be 120a f23e
00000070: 14bf 08be d22a 9ebe d0fc 3d3e d4ea 70be
00000080: d2c4 96be b9a7 443e 9944 4bbe c24d a1be
00000090: d805 563e eabc b8bd 68de 35be c213 773e
000000a0: 7128 25be 014d 97bd 6e5d c23e a4f7 6f3d
000000b0: 247f 063e f4f2 683e 171e d13c 863c 0cbe
000000c0: 4401 133e d118 683b ef88 55be da6c e53d
000000d0: 6eac c6bd 6edb a2be b2a6 e13d 0748 793d
000000e0: 59a7 2bbd 6634 8dbd 6b6b a6bd 0df5 1cbe
000000f0: 6fd8 97bd a931 d2bd 0ab3 5ebe 2282 c4bd
00000100: 97d1 123d 37c3 f73d 5b6e b43c 92b8 273e
00000110: 9ade 353e 21a1 1f3c 3bb1 ec3d 7185 973e
00000120: 3291 b0bd 66a1 5d3e 3832 983e 9161 fcbd
00000130: b158 1f3e 330d 1a3e daa6 84be 4e11 06be
00000140: 0388 423b bf3d 21bb 919e 85be 7ee5 8fbe
00000150: 33fc 113e 5e98 14be 8861 78be 0f19 aa3e
00000160: 1322 9fbc b2dc 78bd 1c6a e43d b200 7e3e
00000170: f17b d23d 908d 48bd 6d56 013e f064 90bb
00000180: d8ec 2cbe 7ce6 dc39 c3d1 f5bd 2fad 09bd
00000190: 28db 673e b051 913e eb2d 38bd ff3a 433e
000001a0: a685 053e 3883 9fbe d6d1 65bd 9280 9b3b
000001b0: 534f 813d eb4a 66bd 09c5 6cbd fd4e 4bbd
000001c0: 9ccd aebc d16c d73c 2052 12bd bb6f a83a
000001d0: 591e 5bbd c9a8 76bc 14f2 f8bb 0675 673b
000001e0: b532 493d 2f9e 633d a5eb 3dbd 89a4 1abd
000001f0: 321b 2fbc fd02 14bd 1306 693d 5ea3 9ebc
00000200: cc7a f7bc 5040 6b3c 3e5e e93c 5e54 4abd
00000210: 1897 e13c 6888 3a3d 45ce 423d afe7 ce3c
00000220: bb5b edbc 99a9 89bd 136e 21bd 4d76 ea3b
00000230: aa12 78bc 02b5 8f3c 930c 883d fd06 40bd
00000240: 470b b63c 99af 423d 6fb1 dfbc 2a31 53bd
00000250: 228e 02bc af69 1bbd fdd9 30bc 870e 5e3d
00000260: a6f0 483b ba2b 4ebd 105d 5f3d 7229 3d3d
00000270: 3054 da3c a77a 84bd bac7 ed3c cbe4 5d3c
00000280: f563 47bd 08b4 8ebb 94e3 233c a39d c5bc
00000290: 28e6 3abc 73a2 51bc 3226 3dbb fda3 2e3d
000002a0: 4e83 b03b 8a2c ccbc 7af0 adbc 2293 113d
000002b0: 8fb1 86bd 8df3 0a3d da6a 063d 680a 04bd
000002c0: fd6d 61bd fadd 243d 16e6 81bd bbe7 183d
000002d0: 83ed 593d 039c 8bbc 9963 663c f9e5 d2bc
000002e0: 2c36 81bd c272 85bd b34c 7d3d 10ad 9bbc
000002f0: 1788 103d 3eaf 1bbb 93c5 033d f36a 31bd
00000300: e7c4 d83c 7325 2d3d 9d76 313d cb19 4a3d
00000310: deec 34bd dece 2f3d ffc4 5e3d 2f8a 5e3d
00000320: aed1 63bd 2e50 613d 4005 2abd 4e63 7d3d
00000330: d5a0 2bbd d2f9 16bb 16db 67bc 760d 473d
00000340: 4ca5 5bbc 4c84 063d c784 3f3d 5cf7 be3c
00000350: ed6b 8bbc ad0a 02bd 4ecb c7bc b5a4 8e3c
00000360: b9f6 88be 6b57 26bf 2b91 1bbf 79bc d7bc
00000370: 2146 f2be 7a51 dbbe 9436 813e eb66 3dbe
00000380: f5b8 a0bd 1297 8dbe e9fe 0abf d056 0abf
00000390: f7db 04be 11cc ccbe 24d2 b1be ac33 df3d
000003a0: 039f 24be 8e90 01be 1709 423e eb29 88bd
000003b0: ca86 46be d800 86bd 8934 82be df4f bbbe
000003c0: 01ab 15be 372b a1be cc5a c0be a230 0d3f
000003d0: 1c91 73bd 026a e7be 6194 833e 63f0 8bbe
000003e0: 2239 05bf d917 863e 13ef a0be 6d84 f9be
000003f0: 25f1 5c3e bfa3 cfbe 5de8 afbe 3620 dc3e

cell_list.1.conv.bias f4 [48]
0.011003486 -0.022419766 0.015518274 0.12837067 -0.034194686 0.14309272 0.24510132 -0.06273867
0.082438126 -0.10192599 -0.06415477 -0.14437309 0.03353997 -0.041593697 -0.04598895 -0.03554899
-0.008456335 -0.027499096 -0.014849337 -0.06679135 -0.064466186 -0.00911772 0.04328821 0.048031203
0.1523424 0.03301428 0.03143964 0.13348128 0.06708789 0.15060402 0.25151223 -0.059462313
0.16596723 -0.0776274 0.013969849 -0.06960991 0.07556385 0.030938555 -0.05094734 0.047334217
-0.046385486 -0.09364503 0.072549276 0.0053869262 -0.071994 -0.03508259 -0.027816724 0.06988853
00000000: f747 343c a8a9 b7bc 5c40 7e3c 9a73 033e
00000010: ba0f 0cbd e686 123e d7fb 7a3e 227d 80bd
00000020: 52d5 a83d 93be d0bd 9363 83bd 8ad6 13be
00000030: 3561 093d 275e 2abd e95e 3cbd d19b 11bd
00000040: 718c 0abc c945 e1bc a24a 73bc e7c9 88bd
00000050: d906 84bd 7d62 15bc fa4e 313d 5ebc 443d
00000060: a5ff 1b3e fb39 073d dac6 003d 51af 083e
00000070: 6065 893d f137 1a3e 36c6 803e c18e 73bd
00000080: 50f3 293e 1dfb 9ebd cbe1 643c a48f 8ebd
00000090: 38c1 9a3d da72 fd3c 28ae 50bd 86e1 413d
000000a0: b5fe 3dbd f7c8 bfbd b794 943d d084 b03b
000000b0: 9771 93bd c3b2 0fbd e6df e3bc b821 8f3d

output_conv.weight f4 [1, 12, 1, 1]
-0.4156011 -0.3899565 -0.40320957 0.39861298 0.52408475 0.2927204 -0.43753153 0.46050683
0.33905452 -0.49096847 0.3719681 -0.3777536
00000000: abc9 d4be 61a8 c7be 7c71 cebe 0017 cc3e
00000010: 6b2a 063f 73df 953e 2204 e0be 8dc7 eb3e
00000020: 8e98 ad3e 3860 fbbe 9a72 be3e eb68 c1be
